autoencoder.pth (torch, 15538 bytes, 12 tensors)

encoder.0.weight f4 [16, 49]
000000 97 33 4e bd fc 09 28 3e 6c 69 0c 3d 27 6f 80 3e
       -0.05034217 0.16410059 0.034280226 0.25084803
000010 5d bf 0a 3e 19 01 31 3d f3 17 d8 bd a8 47 90 be
       0.13549562 0.043213937 -0.10551443 -0.2817967
000020 57 4c d3 be c7 13 01 3e 4a b7 8b 3e 06 57 ab be
       -0.4126918 0.126052 0.27288276 -0.3346483
000030 18 c1 88 be 85 26 07 be 70 13 ef 3e c2 b2 3e 3f
       -0.2670982 -0.13198288 0.46694517 0.7449151
000040 3b 48 33 be 4b 3e 3f 3e 15 39 83 3d 80 a2 44 3e
       -0.17508022 0.18676107 0.06407372 0.19202614
000050 9b 79 c9 bd 9b b4 9d 3e 56 00 b5 3e b6 6a a1 3e
       -0.098376475 0.30801854 0.3535182 0.31526726
000060 b5 fd 40 3e 24 ba 2d bb 8c 89 d5 3d ce cd 86 be
       0.18846782 -0.0026508654 0.104266256 -0.26328892
000070 1e 3b 8a 3e 59 42 a4 3e 6d 90 9a be c5 b9 8f 3d
       0.26998228 0.3208187 -0.30188313 0.070178546
000080 dd 74 12 3e a0 9b ca bd 49 3d 3b 3d 3d 2e 3f bd
       0.14302392 -0.09892964 0.045712743 -0.046674956
000090 c8 d8 bf bd 1f 18 5b be d9 4d bb 3f 70 e7 6e be
       -0.093675196 -0.2139592 1.4633132 -0.23330474
0000a0 45 f0 70 be bb 33 92 3e 9c 6a 98 be d2 af 15 3f
       -0.23529156 0.28555092 -0.29768836 0.58471406
0000b0 b9 35 af 3d 43 83 e6 3d 75 f5 0f 3e 84 bf c2 bd
       0.08555169 0.11255505 0.14058478 -0.09509185
0000c0 1e ed 0f 3e ae f2 06 3e 73 d4 2e be 34 46 bc be
       0.14055297 0.13178512 -0.1707323 -0.3677231
0000d0 02 c8 34 bd 64 6f 4f be 9e 65 f4 be 0d c4 88 be
       -0.044136055 -0.20257336 -0.47733778 -0.26712075
0000e0 e5 76 a2 bd 05 34 86 3e ea bc 47 3d 1e ec aa be
       -0.079328336 0.26211563 0.048764147 -0.33383268
0000f0 22 d9 f3 3c 32 e9 5f 3d e5 39 11 bd 18 ee ff 3d
       0.029766623 0.05466575 -0.035455603 0.12496585
000100 d8 b0 eb bf 03 9d 15 3d a3 af 29 bf f2 f6 48 bf
       -1.8413343 0.03652669 -0.66283625 -0.7850181
000110 03 b0 0a 3e cc 35 0f be cc ab 8e bf 11 b4 6a bf
       0.13543706 -0.13985366 -1.1146178 -0.9168101
000120 7b bf 8a be 36 be 56 be 50 48 8a be fc 66 7a 3d
       -0.27099213 -0.20970997 -0.27008295 0.06113337
000130 9d cc 7b bf 9f bc 22 3e 79 85 2f 3d 74 11 3a bd
       -0.9835909 0.15892266 0.0428519 -0.0454268
000140 3b 23 d6 3d 1e 82 b2 3b 78 b2 0e 3f 33 3c 80 3e
       0.104559384 0.00544764 0.5574107 0.25045928
000150 a3 0c 2f bf b4 d2 4b bf 4c 74 2b be e1 33 08 3d
       -0.6837866 -0.7961838 -0.16743582 0.0332526
000160 70 59 85 be ba c6 24 be ca 22 cf bd fd fe 10 3e
       -0.26044798 -0.16091433 -0.10114057 0.1415977
000170 8e 4b 5c bf e7 a7 81 bf fc 76 76 bf 16 20 2b bf
       -0.8605279 -1.0129365 -0.96275306 -0.66845834
000180 01 c2 82 3f 25 c1 a2 ba 4e 98 86 3d b1 de 42 be
       1.0215455 -0.0012417181 0.065720186 -0.19030263
000190 36 7d 4d bf 51 a2 0a bc b2 02 30 3e bf 53 1d bc
       -0.8026918 -0.008461551 0.17188528 -0.009602486
0001a0 93 f2 b4 be 78 47 08 be c6 70 5b be 94 91 90 3e
       -0.3534132 -0.13308513 -0.21429738 0.28236067
0001b0 4d 9a 3a 3d b9 a8 c1 be c4 f3 fc be 81 29 ab 3c
       0.04555731 -0.37824038 -0.49404728 0.020893814
0001c0 03 2a 17 bf 1c 2d 02 bd e6 dc 87 3e 63 16 f2 3d
       -0.5904848 -0.0317813 0.2653572 0.11820676
0001d0 63 f6 3d 3e 7d d6 82 be b3 a5 74 3e 50 89 fb bc
       0.1855102 -0.25554267 0.23891334 -0.030705124
0001e0 b7 b6 c6 3e 7c 57 02 3e fc 67 42 3e f1 80 d8 bc
       0.38811275 0.12728685 0.1898498 -0.026428672
0001f0 8e 72 8c 3e c2 6d a9 be 46 3c 2c bf 38 25 02 bf
       0.27431148 -0.3309155 -0.6727947 -0.5083804
000200 91 4e 1b bd f9 28 11 3d 9a fb 82 3d ca aa ce bd
       -0.037916724 0.035439465 0.063956454 -0.10091169
000210 7c 3f 1e bf 78 3c 73 be 9e 9c fc bd 95 01 63 bb
       -0.6181562 -0.23753536 -0.1233456 -0.0034638394
000220 c2 93 95 bd 0d a5 09 be b7 d6 35 be 17 98 bc 3e
       -0.07303573 -0.13441868 -0.17757688 0.36834785
000230 d8 7f fb be ab 24 39 3e 24 b4 bc 3d 6f ca 96 3e
       -0.49120975 0.18080394 0.092140466 0.2945132
000240 e3 39 3f bc 46 32 02 be 7c 26 4c 3d 4e 94 e9 3d
       -0.011671516 -0.1271449 0.04984139 0.1140524
000250 83 fd ab bd a1 4b 8d 3d ae 7d 1a 3e ab 04 cc be
       -0.08397963 0.06899191 0.15087005 -0.3984731
000260 ad 62 45 3e 59 78 89 be 18 5c 56 be 31 fa f2 3d
       0.19275923 -0.2684963 -0.20933568 0.118641265
000270 92 f7 9d be 2e 8d 4d 3e 9d ef 0f 3e 8f 96 2e 3e
       -0.30852944 0.20073387 0.14056249 0.17049621
000280 ac a0 f7 bd 51 bd 20 bf 5e d0 19 3e 67 5b c4 3e
       -0.120911926 -0.62788874 0.15020892 0.38350984
000290 79 35 1b be 04 e3 e0 bd 83 2a 26 3e d8 7a 00 3f
       -0.15157117 -0.109808 0.16227154 0.50187445
0002a0 16 48 75 be 76 14 e0 be 61 fc bf 3e 68 26 65 3d
       -0.2395328 -0.4376561 0.37497237 0.05594483
0002b0 ba 71 18 3e 2f e7 40 3e 88 89 32 3e 12 d6 e8 3a
       0.14887133 0.1883819 0.17435277 0.0017763993
0002c0 e3 b2 dd 3d 18 ed bb 3e df 01 7b 3e 93 27 b7 3d
       0.108251356 0.36704326 0.24512433 0.08943095
0002d0 52 e8 4d 3e a0 0e c5 be 39 c3 bd bc 02 92 6f bd
       0.20108154 -0.3848772 -0.023164378 -0.058488853
0002e0 e4 38 93 be 56 53 be be 7c 8f b6 be ab 77 ed 3b
       -0.28754342 -0.37172955 -0.35656345 0.0072469315
0002f0 26 32 31 be 19 05 80 3d 16 c2 a8 be 8e 19 a8 be
       -0.17304286 0.06250972 -0.32960576 -0.32831997
000300 f4 d4 51 be e6 2a 7a be d6 5d bd 3e 81 54 56 bd
       -0.20491391 -0.24430427 0.36985654 -0.052326683
000310 6e ae af bd 1f fd 7b bc b9 c3 98 be d8 2e b4 3d
       -0.08578192 -0.015380173 -0.29836825 0.08797997
000320 52 ec 7a bf 63 d3 06 3d 3c a7 2b 3e fc b8 0e 3e
       -0.98016846 0.032916438 0.16763014 0.13937753
000330 3a 7c 89 3e 66 8a 78 3e 4c d3 68 be 2f d1 26 bd
       0.2685259 0.24271545 -0.22736853 -0.040726837
000340 54 2c de 3e c5 52 a6 3d b1 aa 42 bd b5 85 4d be
       0.43393195 0.08121256 -0.047526065 -0.20070536
000350 37 2b d1 be 72 87 14 3e 74 66 1d 3d c0 08 09 bc
       -0.40853283 0.14504793 0.038427785 -0.008363903
000360 6a 5a d9 be 16 ba 0f 3d e1 6c 7b 3e 41 e0 e5 bc
       -0.42451793 0.035089575 0.24553253 -0.028061034
000370 b4 69 c7 be 9f d1 92 3e 38 fa 8a be b8 97 04 3f
       -0.38947833 0.28675553 -0.27144027 0.51794004
000380 3c ed 8b be f8 ee 96 3d cb 76 f1 bd 26 f0 6e bd
       -0.27329433 0.073697984 -0.11790236 -0.058334492
000390 3d 6b 99 bd 9b 4f 20 be 83 d7 95 be 0b af 97 3c
       -0.07491157 -0.15655367 -0.29265985 0.018516084
0003a0 de a9 f2 3d 62 13 d8 3d 38 0b 8c be 8b 47 14 3e
       0.11848806 0.10550572 -0.2735231 0.14480416
0003b0 fe 4c a7 bd 88 02 bf be 39 ab 12 bd 21 4a af 3e
       -0.08168982 -0.3730662 -0.035807822 0.34236243
0003c0 13 81 0e 3e e4 45 25 3e ca 4a b3 3e 07 a2 84 3c
       0.13916425 0.16139942 0.35017997 0.016190542
0003d0 cc 75 fd bd be ac d4 bd b5 e1 b5 bf cf 45 96 3e
       -0.123759836 -0.103845105 -1.4209505 0.29350135
0003e0 c4 15 d3 3e 54 ec 35 be 94 ac 69 be a4 70 7a 3d
       0.41227543 -0.17765933 -0.2281974 0.06114258
0003f0 ca 7a 26 39 15 d8 e5 be b1 08 1d bd c1 9d 74 3d
       0.00015876736 -0.4489142 -0.038338367 0.05972076

encoder.0.bias f4 [16]
000000 a6 42 0f bf 1f 49 84 3f 2a d3 86 be 66 f1 93 3e
       -0.5596107 1.0334815 -0.2633298 0.2889511
000010 a9 56 b0 be 85 5f 4d 3d 97 d4 45 bd 97 60 36 be
       -0.34441116 0.050139923 -0.048298445 -0.17810284
000020 a1 19 a5 be 50 f4 ed be 0f c3 0b bf 82 89 72 3e
       -0.32246116 -0.46475458 -0.5459451 0.23685268
000030 a6 03 9a bd 3d 70 36 be 95 91 77 3e fd db 95 3d
       -0.07520227 -0.17816253 0.24176629 0.0731735

encoder.2.weight f4 [16, 16]
000000 24 00 20 3f 65 74 90 3f 7e 88 06 3e a9 e1 e2 be
       0.62500215 1.1285521 0.13138005 -0.4431279
000010 74 b1 b7 3e 1c 4c 8b 3d d7 b4 04 bf 5a bd 0d 3e
       0.35877573 0.06801626 -0.5183844 0.13841763
000020 51 62 ba 3e 16 bc 95 bd d6 4a 47 bd 86 f9 35 3f
       0.36403134 -0.07311265 -0.048655353 0.7108387
000030 df 56 6a 3e 22 ad 27 be 58 05 2f bc 6a a4 83 be
       0.22884701 -0.16374639 -0.010682426 -0.25711375
000040 e3 fb d7 3d ac 50 25 3f 79 58 15 3f f4 2a 41 3d
       0.105460905 0.6457622 0.58338124 0.047160104
000050 e7 dd 4f 3e 7b 78 95 3f bd 2d 62 ba f6 48 6a 3f
       0.20299493 1.1677393 -0.00086280314 0.9151758
000060 c5 f2 66 be 40 1a af 3e 67 ad ba bc 54 16 57 3e
       -0.22553547 0.34199715 -0.022787763 0.21004611
000070 73 95 c5 bc 73 35 8b bb d0 89 ef bd fc be 1d 3e
       -0.024119115 -0.004248315 -0.116962075 0.15404886
000080 0d 99 26 3d 4c d7 25 3e a2 1e dc 3c 43 ce d3 be
       0.040673304 0.1619541 0.026870076 -0.41368303
000090 4f 30 05 3c de 89 e2 3d aa 22 b4 be 12 c0 45 3e
       0.008129193 0.11061452 -0.35182697 0.1931155
0000a0 bc b9 1a 3f 74 45 3c 3c d0 b5 90 be a4 e5 1d 3e
       0.6043966 0.011491168 -0.28263712 0.15419632
0000b0 8f 60 8b bf 2a 75 fc be c9 b5 8d be 34 d3 12 3f
       -1.0888842 -0.4930814 -0.27677754 0.5735352
0000c0 58 e0 50 3e 65 f2 a1 3e e2 b4 39 3e ee ab ad 3d
       0.2039808 0.31630245 0.18135408 0.084800586
0000d0 ea cd 16 bf 88 a6 0a bf 3b de d9 be 18 a5 7f bf
       -0.5890795 -0.54160357 -0.4255236 -0.9986129
0000e0 be 5a 35 3f aa d9 34 bd 0e 18 ab 3e e4 42 0a 3f
       0.70841587 -0.044152893 0.3341679 0.54008317
0000f0 66 f7 9a 3e 9c bb b3 3c 3b 52 a0 bc c2 d1 3e bf
       0.30266875 0.021940045 -0.01957046 -0.74538815
000100 1e 57 28 bf 73 38 40 bd 7c 74 22 bf 6a 5c 77 be
       -0.6575793 -0.046928834 -0.6345899 -0.24156347
000110 8d 2d f1 3a b9 b0 27 3e 16 c1 31 bf 12 f5 3f bc
       0.0018400416 0.16376008 -0.6943525 -0.011716144
000120 48 31 b6 be 45 b6 01 c0 6d 2f 47 bf 65 d6 c8 3d
       -0.35584474 -2.0267498 -0.7780674 0.098065175
000130 60 0a 96 bd 1b fe 7f be cd f1 0d 3f 9a df 31 3f
       -0.073261976 -0.24999277 0.55447084 0.69481814
000140 19 65 a0 3e 42 13 a6 3c ef b4 c5 3e 10 09 b3 3c
       0.3132713 0.020272855 0.38614604 0.021854907
000150 42 86 46 bf 8e 03 03 3f 4b 61 67 bd a1 a9 d3 3e
       -0.7754861 0.511773 -0.05648927 0.41340354
000160 39 4a 5b be 73 3d 5c 3f 34 1d 8f 3f 63 1d 2f bd
       -0.21415032 0.86031264 1.1180787 -0.042752635
000170 33 ef 0f 3f 01 f3 07 3f cc af da 3d 03 47 3f bd
       0.56224364 0.5310517 0.10678062 -0.04669858
000180 a4 79 8d 3e 12 97 01 3e 76 07 cf 3e b1 a7 a9 be
       0.27631867 0.12655285 0.4043538 -0.3313575
000190 02 6e cd 3e 1b f5 c5 3e f8 b0 e3 be 6d c9 03 3f
       0.40122992 0.38663563 -0.44470954 0.51479226
0001a0 32 eb 3d bf 7e 92 d4 3e 1e 8f 48 3d 6b 08 4a 3e
       -0.74187005 0.41518015 0.048964612 0.19729774
0001b0 ae 73 05 3f b7 2d 88 3e b3 e9 b2 3e 23 41 00 bd
       0.5212964 0.26597378 0.34943923 -0.03131212
0001c0 43 d8 28 3d fe 92 e9 bd be 29 30 3f 75 1c 7d 3d
       0.04122187 -0.1140499 0.68813694 0.061794717
0001d0 67 db 05 be 0e f3 3d 3e 98 2a 1d 3f af ce c6 3e
       -0.13071977 0.1854975 0.6139312 0.38829562
0001e0 fd 92 56 3e 05 5f fb 3c 88 fd ae 3e 76 df 1e 3f
       0.20954509 0.030684957 0.34177804 0.62059724
0001f0 d0 fd 2c 3f c6 92 a1 be a1 44 47 bd a1 fc cb 3e
       0.6757479 -0.31557292 -0.048649434 0.39841178
000200 4c 3d 80 bd 83 f0 c9 3d 21 9f c0 bd ca 2f 18 3e
       -0.062616915 0.09860327 -0.094053514 0.1486198
000210 fc 64 2b bd 0b c3 51 3e 6c 10 23 bf 17 33 3c 3f
       -0.041844353 0.20484559 -0.6369693 0.73515457
000220 16 8b a0 be c2 e2 7c 3e 84 93 8c 3c f9 eb 3f 3e
       -0.31356114 0.24695876 0.017160185 0.1874236
000230 2a 5e 85 3e d3 c4 a1 3c dd ad 19 3f 7f bf 28 3e
       0.26048404 0.019747173 0.6003092 0.164793
000240 8c cf d7 bb 0d 6c 58 bf 31 f9 6f be a0 bc 8f 3d
       -0.006586021 -0.8453987 -0.23434903 0.07018399
000250 e4 64 8f bd 2c c0 d1 bc f1 04 9b be a4 bd 01 3d
       -0.07001665 -0.02560433 -0.30277207 0.031674996
000260 1e a8 dc be a7 a0 f4 bd f3 aa ca be 6d 19 44 bf
       -0.43097013 -0.119447045 -0.3958355 -0.76601297
000270 56 0d 47 be 5e 17 db 3e 52 bc 12 3f c8 47 3c 3f
       -0.19438681 0.42791265 0.57318604 0.7354703
000280 6f 60 2f bf d4 62 e9 be a3 28 80 be 6a 50 03 3e
       -0.6850652 -0.45583212 -0.25031003 0.12823644
000290 7d 71 b8 3c ba 03 51 3e a3 23 6c 3e 28 03 a7 3e
       0.022515053 0.20411578 0.2306047 0.32619596
0002a0 2e 83 c5 ba e9 e8 2a 3f 90 c8 3d 3e 30 14 c6 be
       -0.0015069002 0.6676164 0.1853354 -0.38687277
0002b0 61 b3 7c 3e 1f 21 77 3e 6e 32 14 3f a4 fb e9 3d
       0.24677803 0.24133728 0.5788945 0.1142495
0002c0 c5 0c 29 be e3 04 56 3c db f6 e6 3e ce 72 21 3f
       -0.16508777 0.0130626885 0.4511021 0.63065803
0002d0 05 fc 92 3e a3 d6 27 3e 46 b8 9a be 7c b8 b6 bf
       0.287079 0.16390471 -0.30218714 -1.427505
0002e0 66 b4 68 bd da 70 7b be d2 04 08 3e 0e 47 72 3e
       -0.056812666 -0.24554768 0.13283089 0.23659918
0002f0 ad a9 ca bd 77 7f 23 3f 1a ff 80 3e cb 4a 0a 3e
       -0.09895644 0.6386637 0.25194627 0.13505094
000300 0e 91 9e 3e 7c 28 ae be ac c2 c1 be bf 0a a8 3e
       0.30970043 -0.34015262 -0.37843835 0.328207
000310 5c 20 4c be 76 16 8b bd 7b 0a 4b bf 32 a0 86 3e
       -0.19934219 -0.067913935 -0.79312867 0.26294094
000320 b4 c5 c5 3e 63 1b 18 3f 44 ea 1c 3f a0 f0 b8 bd
       0.38627398 0.5941679 0.6129496 -0.090302706
000330 45 1e 20 3e 44 6b 00 3f a0 c0 7d 3e 43 cb d9 bd
       0.15636547 0.50163674 0.24780512 -0.10634472
000340 af 7b 12 be df 6a 5a 3e 79 bd dd 3d 07 11 1a 3f
       -0.14304994 0.2132983 0.10827155 0.6018223
000350 4b 70 0c 3f 57 a4 82 be 4b c6 2c be 39 b0 ed be
       0.54858845 -0.25516006 -0.16872518 -0.4642351
000360 aa 09 3c be 2c 68 e1 bd fd 06 f8 3c 44 31 1b 3f
       -0.18363062 -0.11006197 0.03027677 0.6062205
000370 df 6e 0b 3f ca 20 f0 3e 45 72 05 3f 20 44 99 3e
       0.5446605 0.46900016 0.52127486 0.29934788
000380 15 b0 6d bf f0 15 01 bb 58 b0 40 be c8 ee c9 bd
       -0.92846805 -0.0019696914 -0.1881727 -0.09859997
000390 a1 95 0f 3f ff 34 22 3e a1 86 2c bf a9 d8 cf 3e
       0.5608769 0.15840529 -0.6739293 0.40594986
0003a0 98 f2 3b 3f 5d 00 02 bf 5d 8c 2f bf 7b 8d 84 bb
       0.73417044 -0.50781804 -0.6857355 -0.004045186
0003b0 e0 59 e0 3e 82 0b 75 be 2d e5 29 bd 0e 2b 30 3f
       0.4381857 -0.23930171 -0.041478325 0.68815696
0003c0 73 af 34 3e cc 67 8b 3d 15 96 97 3e 80 d0 2a bd
       0.17645054 0.06806907 0.2960669 -0.041702747
0003d0 6d 8a 3c 3f d6 f2 f4 3e 93 bb c9 bb ec bb bd 3d
       0.7364872 0.4784152 -0.006156394 0.09264359
0003e0 13 e5 7b bf d7 01 74 3e 66 b3 fb be c9 9d 16 3b
       -0.98396415 0.23828827 -0.49160308 0.002298223
0003f0 13 b4 03 bf ef 0f 99 3e 9c 2f 37 3d ea 32 73 bc
       -0.51446646 0.2989497 0.04472314 -0.014843682

encoder.2.bias f4 [16]
000000 fa d1 c0 3e de 18 d8 bd d2 aa c0 3e d3 21 95 bd
       0.376602 -0.10551618 0.37630326 -0.07281842
000010 2b bc 51 be 06 f7 13 bf 25 71 b4 be 9f 73 10 bf
       -0.20481937 -0.577988 -0.35242572 -0.56426424
000020 14 d8 96 bf 98 ab 38 3f c6 ae f9 be 13 92 9c 3e
       -1.1784692 0.7213683 -0.48766154 0.30580196
000030 1d 96 1e bf 04 d9 89 3e 39 47 54 bd 20 11 1e 3f
       -0.61947805 0.26923382 -0.051825736 0.6174488

encoder.4.weight f4 [16, 16]
000000 d5 f4 84 3d ff a2 06 3f e7 d9 92 bd e5 b7 8f 3d
       0.064920105 0.5259246 -0.07170468 0.07017497
000010 bb a2 4e 3e bb e0 f3 3e 37 db 19 3e 38 a8 db 3e
       0.20179264 0.47632393 0.1502503 0.42901778
000020 07 38 18 3f 18 be 82 be 50 4d c7 3d b4 7d 21 bf
       0.5946049 -0.25535655 0.09731543 -0.6308243
000030 cf 81 f8 3c bf 7e 23 bf c9 ef 91 3c eb 58 e9 be
       0.030335335 -0.63865274 0.017814534 -0.45575652
000040 7a ee 3c bf 45 0b 35 bd be 91 23 3f a1 20 1c bf
       -0.73801386 -0.0442002 0.6389426 -0.6098729
000050 0a 43 c9 bd 19 9d e5 3e c8 45 b2 be a4 aa 34 bd
       -0.0982724 0.44846418 -0.34818864 -0.044108048
000060 dc 33 38 bf 02 ce 3f 3e 54 45 82 3e 50 7d 2a bf
       -0.7195413 0.1873093 0.25443518 -0.6659746
000070 36 20 14 be f2 1c 3b bf 7b 86 93 3e 94 04 8f be
       -0.14465412 -0.7309104 0.28813538 -0.2793318
000080 98 82 1b 3e 4b f8 03 3f bd cb 82 3e 61 b1 12 be
       0.15186536 0.5155074 0.25546065 -0.14325477
000090 b9 9b 3e be 98 94 13 3e 04 43 04 3e 95 6a 22 3f
       -0.18614091 0.14412153 0.1291619 0.6344388
0000a0 b3 4d 0c bd 3d 7c 00 bf 13 ae 20 3e ff 2d 81 bf
       -0.034253787 -0.5018957 0.15691404 -1.0092162
0000b0 fe 67 2a bf c8 da 4c bf f3 d7 53 3e 39 0e a0 be
       -0.6656493 -0.80021334 0.20687847 -0.3126085
0000c0 9d 37 b4 3e 06 83 e7 3a b7 53 94 3e e0 92 e3 3e
       0.3519868 0.0017662949 0.2897012 0.44447994
0000d0 b0 4f 06 be 99 49 81 3c 88 6d ff 3e 8a a7 e4 be
       -0.13116336 0.015782164 0.49888253 -0.44659072
0000e0 6b 54 b4 be 59 e5 eb 3d 37 70 18 3e ad f2 70 bf
       -0.35220656 0.11518354 0.14886557 -0.94120294
0000f0 e5 82 2f 3e 39 85 3a bf 8a 9c 22 3e 1a d1 f4 3e
       0.17139776 -0.7285953 0.15880027 0.47815782
000100 3e 59 f9 3e a0 a5 93 3c 36 1f 85 be b5 18 68 3e
       0.487009 0.018023312 -0.26000375 0.22665675
000110 08 50 04 bf 1f ba 4a 3d b3 69 9f 3e e5 30 84 b9
       -0.5168462 0.049493905 0.3113533 -0.0002521343
000120 d3 ee 57 be 3d fc 14 bf 56 0b e8 be 89 15 af 3d
       -0.21087198 -0.58197385 -0.4532115 0.085490294
000130 ea 62 61 3e cc 15 96 3e f2 1c 11 bf e7 49 1e 3e
       0.22010389 0.29313505 -0.5668479 0.15457879
000140 b3 a8 79 3e d7 e5 10 3e 83 d4 4d 3f 6d 4d 3d 3e
       0.2438076 0.14150177 0.8040239 0.18486567
000150 9d 3e e1 3d dc b1 a8 be 6d 36 7d 3e d7 dc 2e be
       0.10998271 -0.32948196 0.24727793 -0.17076431
000160 36 43 05 3f 1a d8 11 3e cd 84 8e be 96 d6 0c bf
       0.5205568 0.14242592 -0.27835694 -0.5501493
000170 75 6a 5c 3d 73 d7 12 bf 1e 96 3a 3f ae d6 2f 3b
       0.053812463 -0.5736 0.7288531 0.002683084
000180 26 a8 83 be fe f2 45 3e fe 59 09 bf 9e 93 b8 3e
       -0.25714225 0.19330975 -0.5365294 0.36050123
000190 62 bf 8f 3e 56 29 09 3e af 6a 0f 3f b7 23 f4 bb
       0.280757 0.13394675 0.5602216 -0.0074505466
0001a0 07 3f 31 3f 14 10 5b be 88 10 3b be 2b 6f 4d bd
       0.692368 -0.21392852 -0.18268025 -0.050154846
0001b0 3c 78 38 3e 2f 03 9e be ca b6 69 3e e5 47 b5 be
       0.18014616 -0.30861804 0.22823635 -0.35406414
0001c0 d3 e8 ab be 16 11 a0 be b6 48 ae 3e 6f 3b 71 3b
       -0.33576068 -0.31263036 0.3403985 0.0036809107
0001d0 a5 10 b4 bd e0 66 89 be d0 df 61 bf d9 f9 0c 3f
       -0.08792237 -0.268363 -0.88232136 0.5506874
0001e0 29 ca 83 be 8f 86 6b 3c b6 f7 fc 3d e5 f8 0c bd
       -0.25740173 0.014375343 0.123519346 -0.03441705
0001f0 7d 73 88 bd 74 df 41 be 59 08 4d 3e f8 a8 5a bf
       -0.06662653 -0.18932897 0.20022716 -0.85414076
000200 b6 e7 0c 3f 06 4b f1 3e b3 61 56 bd b6 79 a8 bd
       0.5504106 0.4712755 -0.052339267 -0.082263395
000210 b1 94 ad be 27 90 01 be bb fe b5 3d f7 d8 f5 3e
       -0.33902505 -0.12652646 0.088864766 0.48017094
000220 77 d2 28 be 3c 17 47 bf 5b 25 4f be 5b 01 c1 be
       -0.16486536 -0.7776983 -0.20229094 -0.37696347
000230 fa 08 d7 be 2d 0a 0b bf e3 05 4c be a2 0b 75 be
       -0.41999036 -0.543124 -0.1992412 -0.23930219
000240 51 f6 00 be 6e dd a8 be d5 66 1e bf fb 05 34 3f
       -0.12593962 -0.32981437 -0.6187566 0.70321625
000250 5d f6 73 be 4f 83 a7 3e 80 7b c3 bd 28 44 f7 3e
       -0.23824449 0.32717368 -0.0954504 0.48294187
000260 a0 2a da 3d ce 54 d8 be 3d c5 95 3e f8 fa a4 bc
       0.10652661 -0.422522 0.29252043 -0.020139202
000270 59 1e 09 3e b1 f6 e6 3e eb 80 20 bf 2f 0e 1b bf
       0.13390483 0.45110086 -0.62696713 -0.6056852
000280 4f 17 c2 3e 80 69 ab be 6a 4e 2f bf 43 78 d9 bb
       0.37908408 -0.33478928 -0.68479025 -0.006636651
000290 08 f0 91 be 3a be 01 be 20 5e 87 3e ff a8 96 3e
       -0.28503442 -0.12670222 0.26439 0.2942581
0002a0 6a a9 13 bf ac 47 0d bf b3 4f f1 bc de 8a fb 3c
       -0.5768038 -0.5518749 -0.029456949 0.030705865
0002b0 d9 82 32 be d4 f9 14 3f b9 0d 22 bf f4 0e f1 bb
       -0.17432727 0.5819371 -0.6330219 -0.007356519
0002c0 bb 34 e2 3d 02 32 7c bd 9d 7c e2 3e db ef ac be
       0.11045214 -0.06157113 0.44235697 -0.33776745
0002d0 28 76 4f 3f 7a f9 f7 be 3d 36 eb 3d a1 4b 2c be
       0.8103967 -0.48432523 0.114849545 -0.16825725
0002e0 10 4d 94 3e 90 af f6 3e 93 c9 60 be d6 bd 26 3e
       0.28965044 0.4818082 -0.21951894 0.16283354
0002f0 dd 03 0a bf ca ea fc 3e bf 50 65 3f 84 9d eb 3e
       -0.53912145 0.4939788 0.89576334 0.46018612
000300 cf 0a 59 3e ad 34 1a bf ae e8 67 be d1 78 da 3e
       0.2119553 -0.60236627 -0.22647354 0.426703
000310 8e 44 42 3e 58 74 31 3e 42 7f 7d 3e 9a 5a c7 be
       0.18971464 0.17329538 0.24755576 -0.3893631
000320 9e 05 04 3d 50 c5 95 3c db d6 7d 3d cf 22 18 be
       0.03223192 0.018282562 0.06197248 -0.14857028
000330 e2 fa 4b 3f a0 47 35 bd 4f a2 b3 3d 98 8f 05 bf
       0.7967969 -0.04425776 0.08771192 -0.5217223
000340 7b a0 0b bf 2b 05 9e 3e aa 7f a5 be 10 e1 b6 be
       -0.5454175 0.30863318 -0.32323962 -0.35718584
000350 7b b7 17 3f 6d d8 55 3d 54 4d 57 3e d1 87 94 be
       0.59264344 0.052208353 0.21025592 -0.2900987
000360 ff 9c 00 3f dc a6 16 3f 0d e9 9b 3e 98 f5 21 3f
       0.5023956 0.5884836 0.3045124 0.6326537
000370 5d 05 54 be 63 f2 d6 3c ff 48 03 3e b0 08 5b be
       -0.20705171 0.026238626 0.12820815 -0.21390033
000380 47 76 cb 3e 8e 6a 73 bd da 7a 64 3f 15 75 45 be
       0.39738676 -0.05942779 0.89249957 -0.19282945
000390 8f 37 ec be ad b5 7c bf eb 5f 0c be 9f 54 6a 3e
       -0.46136138 -0.98714715 -0.13708465 0.22883843
0003a0 82 0f 2a bf c0 0c ac be 52 32 13 bf 14 76 4e be
       -0.66429913 -0.33603477 -0.5749866 -0.2016223
0003b0 3a 6a e9 be b6 fc a8 3e 25 f6 24 bc ef ff 9c be
       -0.45588857 0.33005303 -0.010068451 -0.30664012
0003c0 95 0b 5c 3e a7 8e c1 3e 52 f5 d9 3d 5a a6 8b be
       0.21488793 0.37804148 0.10642494 -0.27275354
0003d0 b3 cb 1d be 6d fb 8c be ec 85 4b bd 15 b8 a0 3e
       -0.15409736 -0.27535573 -0.049688265 0.31390443
0003e0 5a cf 6c bc 2a 2b 8b be c6 94 e3 be 30 98 31 3e
       -0.014453733 -0.2718137 -0.44449443 0.17343211
0003f0 b5 89 4b bf 17 18 aa 3e 3a fd 3a 3e e1 eb 4f 3c
       -0.79507 0.33221504 0.18260661 0.012690515

encoder.4.bias f4 [16]
000000 a6 84 4e bf ff 8a 1f 3f ed c3 32 3e 54 52 1c 3f
       -0.80671155 0.62321466 0.17457552 0.6106312
000010 c1 be ae bd 9f af 1f 3f e5 d0 87 bf 3a eb f2 3e
       -0.08532477 0.6237735 -1.0610625 0.4744509
000020 9b 45 20 bd bb 9f f9 be e0 fc 55 be 4b 82 5a 3f
       -0.03912888 -0.48754677 -0.20897245 0.8535506
000030 d6 d2 9d be 59 70 90 bd 87 32 a7 3f 7c ca 5d 3f
       -0.30824918 -0.070526786 1.3062295 0.8663709

decoder.0.weight f4 [16, 16]
000000 46 52 24 3f 24 1b e1 be 5a 1f 46 3e a3 bc e3 3c
       0.6418804 -0.4396602 0.19347897 0.02779991
000010 26 c7 86 3e 7f 9c 56 3e 74 a9 ea 3e 58 f5 db be
       0.26323813 0.20958136 0.45832407 -0.4296062
000020 84 08 9e bd 5b 99 6b be 7d d8 56 bd 0f d0 37 3e
       -0.07716468 -0.23007719 -0.052452553 0.17950462
000030 96 be 13 be 8f da d8 3c 06 2b a8 be 1a e1 71 3d
       -0.14428172 0.026471404 -0.32845324 0.059052564
000040 2f dc a3 3e 80 04 32 ba ca 90 82 bd f5 0e c1 bd
       0.32003924 -0.00067908317 -0.063752726 -0.09426681
000050 45 31 7e 3e d9 35 dd be 78 7a 5c bc 9f 35 a3 be
       0.24823482 -0.43205145 -0.013456933 -0.31876847
000060 80 32 dd bd 83 31 a8 3e 3b 1e 7f bd 0a 87 f4 be
       -0.10800648 0.32850274 -0.06228469 -0.47759277
000070 2b c2 20 be 56 6b 9a bc 26 7f 0e bf 53 6b 68 3e
       -0.15699069 -0.01885001 -0.55662763 0.22697191
000080 6e 7e e6 3e 35 43 2a be 44 26 25 3f 03 a8 2c bf
       0.45018333 -0.166272 0.64511514 -0.67443866
000090 3f f4 85 3d 6d 86 42 be 78 10 84 3e 6e 93 f0 3a
       0.06540727 -0.18996592 0.25793815 0.0018354484
0000a0 f7 d3 33 3f af e9 01 bd b0 18 d8 bd da ba ad 3e
       0.7024531 -0.031717 -0.10551584 0.3393162
0000b0 f5 db 0a bf df f0 35 3f e7 69 e8 3d 55 d2 93 3e
       -0.5424188 0.71070665 0.11348324 0.28871408
0000c0 88 51 7c 3e 91 d4 bc be 88 36 b3 3d 97 26 ee 3e
       0.24640477 -0.36880925 0.087506354 0.46513817
0000d0 06 17 1c 3f 0d 40 d7 bc 22 88 92 3d 79 77 db be
       0.6097263 -0.026275659 0.071548715 -0.42864588
0000e0 82 fd a4 3e fa 1e 24 bd a7 f9 47 3e 19 11 86 be
       0.3222466 -0.040068604 0.19528829 -0.2618492
0000f0 9f 05 5e be 9a 5b 03 bf 60 6c b4 bd 13 4d 93 3e
       -0.21681832 -0.5131165 -0.088097334 0.2876974
000100 92 85 fd 3c c7 b5 13 be db b9 75 3e 25 62 83 bd
       0.03094748 -0.14424811 0.2399668 -0.06415204
000110 52 48 95 3d a2 b9 20 be d0 62 05 3d a6 4f dd be
       0.07289185 -0.15695813 0.032564938 -0.4322483
000120 d0 b2 1b 3e 1f 62 cd 3c 87 59 69 3e 6d 4a ea 3e
       0.1520493 0.025071202 0.22788058 0.45759907
000130 cb c0 7f be 6b 99 41 bd 4f 4c ae be 57 49 9c 3e
       -0.24975888 -0.04726545 -0.34042594 0.30524704
000140 eb 7d fa 3e 19 ef 3a 3e f5 7b e8 3e d2 17 55 3e
       0.48924193 0.18255271 0.45407072 0.20809868
000150 90 e1 63 be 8e 72 5e 3f a0 c1 9e 3d 71 05 77 3c
       -0.22254014 0.86893547 0.07751775 0.015076981
000160 d9 2e e7 3d 78 cf d0 be 92 3d 4d bf 83 25 f8 3e
       0.11288232 -0.40783286 -0.80172074 0.4846612
000170 c0 4c a1 be 1c 0a 8c 3e 39 de 40 be 0a 1f 55 3e
       -0.31503868 0.27351463 -0.18834771 0.20812622
000180 5d ee 32 3e 38 ea 32 bf 2d 2a 74 3e 60 26 ea be
       0.17473741 -0.6988864 0.23844214 -0.45732403
000190 9d ac 12 3e 34 4f 96 3e cb 88 73 3d a1 4e e6 bc
       0.14323659 0.29357302 0.059456628 -0.028113665
0001a0 57 4a a9 3e 44 81 38 3e 7d a0 8b 3e ff f0 dc 3e
       0.3306453 0.18018061 0.2727088 0.43152615
0001b0 7f c0 a7 be 61 58 9d be b3 7c 9c 3e d2 50 09 3f
       -0.3276405 -0.3073149 0.30563888 0.53638947
0001c0 e4 91 e7 bd 78 63 c8 be 63 cf 82 be b4 50 5d bf
       -0.11307123 -0.3913839 -0.25548849 -0.8645127
0001d0 fc 8c 38 3e 88 49 0e bf 44 87 09 3e 47 70 16 bd
       0.18022531 -0.5558095 0.13430506 -0.03672817
0001e0 b3 f4 c4 bd 65 ec 04 3f 5e bf f4 3d cb 3c 97 bd
       -0.09616985 0.5192321 0.11950563 -0.07384642
0001f0 33 78 8e be b2 42 08 3e 15 42 c3 be f2 25 b4 3e
       -0.2782608 0.13306692 -0.38136354 0.351852
000200 88 38 6f bf 5e b2 d0 bd 12 87 03 bf 75 9d 86 be
       -0.93445635 -0.10190271 -0.51377976 -0.26292005
000210 b6 88 96 bd 21 25 0f be d9 46 15 bf 70 d9 1d 3f
       -0.07350294 -0.13979007 -0.5831123 0.6165991
000220 c9 b3 01 be 70 c3 3f be f7 b2 be 3e 87 9d 06 bd
       -0.12666239 -0.18726897 0.37245914 -0.032865074
000230 d7 e3 7f 3b f2 52 0f be 5b 47 5a 3f 75 f1 22 3e
       0.0039045715 -0.13996485 0.8526513 0.15912421
000240 ae c4 96 3e 42 2a 8c bd ea e3 3b 3e 52 27 2d bd
       0.2944693 -0.068439975 0.18348661 -0.042273827
000250 21 c4 13 be 1f 9c 55 be 33 26 3e bb 13 e6 fd be
       -0.14430286 -0.20860337 -0.0029014468 -0.49589595
000260 7c 3a e5 bd c0 f6 2a be 03 89 ff bb 5a c3 b7 3d
       -0.11192796 -0.1669569 -0.0077983155 0.08972807
000270 8c a3 d8 be 24 80 12 3f 4e 82 29 bf 5c 99 8d 3e
       -0.42312276 0.5722678 -0.66214454 0.27656066
000280 6d 39 20 bf 5d a2 3f 3e b5 3a bf 3e e3 b5 c7 3e
       -0.62587625 0.1871428 0.37349477 0.39005956
000290 bd f6 2b 3e 2d 02 bc 3e 7f 11 0c bf 94 2b 3d be
       0.16793342 0.3672041 -0.54714197 -0.18473655
0002a0 73 22 42 3f 8d ce 4e bf a3 05 02 3e ef 9b 02 3f
       0.75833815 -0.8078392 0.12697463 0.51019186
0002b0 bd ab 1d bf e9 31 ba be 75 e6 6f 3f c7 f8 02 3f
       -0.61590177 -0.36366203 0.93711025 0.51160854
0002c0 c0 b3 02 3f 4c fa 2e 3f ce a2 3a 3f ab bb 06 3f
       0.51055527 0.6835067 0.7290467 0.5263011
0002d0 87 62 c0 bd ba 3d 8e 3e 17 1e 51 bd 0d 25 fe 3e
       -0.093937926 0.2778147 -0.051054087 0.49637643
0002e0 9f d7 29 3f 00 3f c8 bd 3f 60 00 3d fc 81 60 bf
       0.66344637 -0.09777641 0.031341787 -0.8769834
0002f0 85 a1 09 3e ab 91 24 bf 8a 5f 1b bd c9 d1 47 be
       0.13440521 -0.6428477 -0.03793291 -0.1951362
000300 b6 d4 c7 be 71 68 d3 be dc 0f f8 be 6a ff 0b bf
       -0.39029473 -0.4129062 -0.484496 -0.54686606
000310 94 92 9e 3e b6 65 e6 be d1 b0 b9 3c fd 86 72 be
       0.30971205 -0.44999474 0.02266732 -0.23684306
000320 14 e4 0b bf 88 54 9c be ea 75 08 be ae 64 03 3f
       -0.54644895 -0.30533242 -0.1332623 0.513255
000330 5f c3 e4 be a8 f4 b3 3e fd ee 40 be e8 9f c6 3d
       -0.44680306 0.35147595 -0.18841167 0.096984684
000340 fd ac c5 bd 07 83 4a 3e b9 71 02 3f 72 11 92 be
       -0.096521355 0.19776545 0.50954777 -0.28528935
000350 18 83 3a 3e b9 ad 15 bf 66 a5 1d 3e 99 83 a9 3e
       0.18214071 -0.58468205 0.15395126 0.33108214
000360 4e 54 81 bc 6c f8 83 3f fa 13 0f 3f 62 78 e5 bd
       -0.01578727 1.0310187 0.55889857 -0.11204602
000370 9f 8c 97 be 78 1b d2 bd 9b d3 f2 3d bc a3 bd 3e
       -0.29599473 -0.102591455 0.11856767 0.37038982
000380 5d c5 05 bf ab be e8 be f4 9e 38 bf 44 a9 bf bd
       -0.5225428 -0.45457968 -0.72117543 -0.09358457
000390 57 5b d0 3e 7d b1 45 bd 69 0a ad 3e 9f 76 f1 be
       0.40694687 -0.04826497 0.33797005 -0.47160813
0003a0 cc 8d 73 be 40 a9 44 3e 9d 96 7f 3e d8 16 1d 3f
       -0.2378456 0.19205189 0.24959798 0.6136298
0003b0 b8 de 3a 3e bf 7d ac 3e 6e 3f 0a bd 20 c4 92 3e
       0.18249023 0.33689687 -0.033751898 0.28665257
0003c0 90 43 2f 3e 64 27 b4 3d f2 d6 fb 3d 35 f9 ef 3a
       0.17115617 0.08796576 0.12296857 0.0018308522
0003d0 46 a6 f5 be fd 37 70 3d 32 6c 1b 3e 0e e4 a2 3d
       -0.4797842 0.058647145 0.15177992 0.07953654
0003e0 9c b7 f3 be 2d 8a bf be 8f 1d 8c be 1a 82 18 3f
       -0.4760102 -0.37410107 -0.273663 0.5957352
0003f0 21 5e 8c be de 5b 48 3e 77 d8 e1 3d 06 5c b8 3e
       -0.27415565 0.19566295 0.110276155 0.36007708

decoder.0.bias f4 [16]
000000 9f a8 86 be 4b 6a bc be fe c6 54 3f a0 10 7c bf
       -0.26300523 -0.36799845 0.8311614 -0.9846287
000010 4b 94 87 be 55 ef f7 bd 45 5c c9 3d 71 c5 04 bf
       -0.26480326 -0.12106196 0.09832052 -0.5186377
000020 4c f4 c2 3d 97 33 54 3c a5 95 0c 40 23 b5 93 3e
       0.09519252 0.012951753 2.1966336 0.28849134
000030 2d 61 c2 3e 04 ac d3 3f 50 79 9d 3f 67 0a 34 3f
       0.37964764 1.653687 1.2302647 0.7032837

decoder.2.weight f4 [16, 16]
000000 85 e2 83 be 40 66 35 be 76 1b b7 3e bf c3 bc be
       -0.25758758 -0.17714787 0.3576314 -0.36868092
000010 37 45 5b 3e 6e 25 0e bf 3c 2a 2b bd 45 bb 3c 3e
       0.21413122 -0.55525863 -0.041788325 0.18430813
000020 e5 ab 22 3f 7e 46 dd bd 9a a0 fc 3e 85 e2 23 3e
       0.6354354 -0.10804461 0.4934128 0.16004379
000030 21 a4 c9 3e fc be 07 3d 5c ce 2d 3f e0 ed 8d 3c
       0.39383033 0.03314112 0.67893004 0.017325342
000040 fa 44 b7 bd f3 67 0e 3e 5b 2f 6f 3e 85 8f dc 3d
       -0.08948703 0.13906841 0.23357908 0.10769562
000050 23 a8 ea be c9 74 e7 3e 69 ee d8 bd b5 f1 ee bd
       -0.45831403 0.45206288 -0.10592348 -0.11667196
000060 df 04 23 3e 1b 5f e5 be 16 2c c3 3c f0 fc 36 3f
       0.15919827 -0.44799122 0.023824733 0.714797
000070 0c 95 41 bf b5 31 46 be 83 f7 52 bf b5 90 11 be
       -0.7561805 -0.19354899 -0.8240892 -0.14215358
000080 4a 89 81 bf 9a 5e 09 3f f9 76 47 bf e6 f9 ac be
       -1.0120022 0.53659976 -0.7791591 -0.33784407
000090 7e 2e 4d bd e8 46 13 bf 7b 50 3f bf 3c b5 8d 3e
       -0.050093167 -0.5753007 -0.7473218 0.27677333
0000a0 1a 1e 65 3e ac 32 8b 3e fe c4 5d 3f 7a bd 91 be
       0.22374764 0.27187097 0.8662871 -0.28464872
0000b0 f8 d8 0d 3f cb f8 f0 be 39 52 40 3e 44 85 40 bc
       0.55409193 -0.47064814 0.18781365 -0.011750523
0000c0 59 88 ed bd 43 4b b7 be 18 74 84 3e 6d 3e a1 3e
       -0.11598272 -0.35799608 0.25869823 0.3149294
0000d0 cf 81 bc 3d 62 1b 57 be cc af c8 3e b1 b7 57 bd
       0.092044465 -0.2100654 0.39196622 -0.052665416
0000e0 be ea e2 be 7f f9 9b bd 07 e7 a5 be c6 98 ff bd
       -0.4431972 -0.07615947 -0.32402822 -0.12480311
0000f0 0c 58 14 bf de d7 5d 3e 6c 2c 02 bf f0 4b 71 bf
       -0.5794685 0.21664378 -0.5084903 -0.94256496
000100 32 47 45 3e dd 2e 32 3e 43 13 de be 64 a3 d8 3e
       0.1926544 0.1740069 -0.4337407 0.42312157
000110 67 24 9a ba 0f 56 3f 3e 57 29 e6 3d b7 c1 34 3e
       -0.0011760116 0.18685172 0.11238354 0.17652021
000120 55 5c 60 3e 43 64 f8 bd 05 fb 51 3f 72 e6 f2 3d
       0.21910222 -0.121284984 0.8202365 0.1186036
000130 6e 26 41 bf a0 88 88 3d ae b2 a0 be b8 6f ac be
       -0.75449264 0.06666684 -0.31386322 -0.33678985
000140 c3 8f b7 bd 0f 26 a4 be ae e0 02 3f 2e 4b 75 bd
       -0.08962967 -0.32060286 0.51124084 -0.05988615
000150 8f 70 ab 3d dc 9a f9 bc 80 78 e8 3e 93 ab c5 be
       0.08371078 -0.03046935 0.45404434 -0.38607463
000160 11 70 e2 3e b0 a2 82 be 91 4d 51 3e 72 05 3e be
       0.44226125 -0.25514746 0.20439745 -0.18556765
000170 12 2a c8 bd d4 bf 23 3f df 23 51 be 79 01 25 3e
       -0.09773649 0.6396458 -0.2042384 0.16113843
000180 ea b8 82 3e 2c 68 62 be 14 e0 44 bd 60 f2 8a 3e
       0.25531703 -0.22110051 -0.04806526 0.27138042
000190 7c cd 9d 3d 05 98 9a 3e 7b ad 4e 3c 52 e5 20 bf
       0.07705209 0.30194107 0.012614603 -0.62849915
0001a0 7e 1d 97 bf c8 0d 3f 3e cf a9 23 3e da 59 6d be
       -1.1805875 0.18657601 0.15982746 -0.23178807
0001b0 70 8f 99 be 92 de eb 3d 73 ab d4 3e 7f a3 7a 3e
       -0.29992247 0.11517061 0.41537055 0.24476431
0001c0 bc 9b 5d 3e fe 8c 1f 3f 77 a3 2c 3d 1c 9e df 3e
       0.21641439 0.6232451 0.04214808 0.43675315
0001d0 d1 64 82 3e 3d c6 ad 3c 5e bc ce 3e 6c 63 d4 3e
       0.25467542 0.021212691 0.40378088 0.41482103
0001e0 f9 04 45 3c a6 a5 24 bf 09 23 ef bd 89 3c 7b be
       0.012025111 -0.6431526 -0.11676604 -0.24534811
0001f0 b2 f3 ee be b4 f2 4a 3f c3 c0 ae be 00 73 08 bf
       -0.466703 0.79276586 -0.3413144 -0.53300476
000200 22 23 cb 3e fb f4 0b 3e 2f e5 e4 3e bb da 5e 3d
       0.39675242 0.13667671 0.44706103 0.054407816
000210 90 e3 09 3e d5 e3 38 3f c7 72 1b 3d 31 24 12 be
       0.13465714 0.72222644 0.037951257 -0.14271618
000220 af 93 59 3c 1c 66 15 3f e7 6e 1c be 91 ee 51 be
       0.013279839 0.5835893 -0.15276681 -0.20501162
000230 33 e9 87 be ea 81 dc 3c c8 2e 4e be c9 b2 97 3e
       -0.26545104 0.026917417 -0.20135033 0.2962859
000240 28 ca bc 3d f1 6a 5d 3e 8a 5f ef 3e 28 1c a1 3e
       0.09218246 0.21622826 0.46752578 0.31466794
000250 5e e8 8b 3e 02 50 a8 be 53 6e 8c 3d 58 85 26 3d
       0.2732572 -0.3287354 0.0685698 0.04065451
000260 68 85 0c be 14 86 c8 bd 97 b2 d6 bd 43 68 6c 3f
       -0.13722765 -0.097911984 -0.10483282 0.9234659
000270 f3 f6 06 bf 77 d6 e3 3e 6e 9b b1 be ed 03 39 bf
       -0.52720565 0.4449956 -0.34688896 -0.72271615
000280 34 ad eb 3e 06 63 f8 3e f4 7f ad be ba 78 21 3e
       0.4603058 0.4851305 -0.33886683 0.1576871
000290 36 65 11 3f fa 45 3f be 3c 40 e6 3d aa 39 fd 3e
       0.5679506 -0.18679038 0.112427205 0.49458057
0002a0 85 71 d8 be 2b 2c d6 3e a1 d4 7d 3e 5b 6e 58 bf
       -0.4227411 0.41830572 0.24788143 -0.8454339
0002b0 a7 8d b3 3e 5b 43 98 bd 6b 98 6c 3d 7e 61 2f bd
       0.3506901 -0.07434722 0.057762545 -0.042817585
0002c0 18 b1 09 bf 52 43 cd be 8f c0 13 be 7b ba ce be
       -0.5378585 -0.40090424 -0.14428924 -0.40376648
0002d0 94 20 25 bf 39 db f4 3e 02 6a 65 be 5d c4 8a be
       -0.64502835 0.47823504 -0.2240372 -0.27102938
0002e0 6f bf c0 3e d8 58 7c be a4 10 8b 3f 11 1d a7 bf
       0.37646052 -0.24643266 1.0864453 -1.3055745
0002f0 ea aa 56 3e 5f e7 23 bf f7 53 cb 3e 14 19 03 3f
       0.20963636 -0.6402492 0.39712498 0.5121014
000300 6a 09 9b bc 44 47 d2 be 5b ee 2a 3f be 16 79 3e
       -0.018925387 -0.41069996 0.6676995 0.24325082
000310 41 45 a6 3d 4f 58 8e 3e aa 1c 52 3f a5 0b be 3e
       0.08118678 0.2780175 0.8207499 0.3711826
000320 ac 7a 54 3f d4 70 cb be 65 29 22 bf 6e 6b a5 3d
       0.8299968 -0.3973452 -0.63344413 0.08077131
000330 97 3d 94 3e ae a0 06 bd 85 f0 08 3f 9d d1 4c be
       0.2895324 -0.03286808 0.53492004 -0.20001836
000340 a9 37 57 bd f1 c1 81 be 46 c3 3f 3d b7 6d 46 be
       -0.052543316 -0.25343278 0.046817087 -0.1937779
000350 9c 7f cb 3e 6e 53 d5 bd 8e 53 02 3e 08 39 83 be
       0.39745796 -0.104163036 0.12727186 -0.2562945
000360 fc 82 09 3c e9 c4 e5 3e aa 18 cc bd f0 b7 b7 be
       0.0083930455 0.44876793 -0.09965642 -0.3588252
000370 c0 75 a7 3e 69 44 cc bd ef d0 7a 3e 5a 9f bd 3e
       0.32707024 -0.09973986 0.24493764 0.37035638
000380 ce 54 c9 3e f5 d7 5d be 3c a2 8d 3e d0 d8 43 3f
       0.39322513 -0.21664412 0.27662838 0.76502705
000390 ae 07 84 3e 33 78 33 3d 5c fd f4 3e 3a 09 cd be
       0.2578711 0.043815803 0.47849548 -0.40046102
0003a0 6e 9a 21 3e 43 5b 6e bd 4a c6 29 3f 37 d6 28 3e
       0.15781567 -0.058192503 0.6631819 0.16487966
0003b0 cf 50 0d bf ff 24 05 3d 50 b8 96 3d aa ae 83 bd
       -0.5520143 0.032505985 0.073593736 -0.06429799
0003c0 fe ce 98 3e c1 38 de bd 64 33 09 3e 53 5e ca bd
       0.29845423 -0.10850669 0.1339851 -0.09881272
0003d0 50 07 8b be 45 ab 16 3f 9d 06 83 be 22 a5 84 3e
       -0.27154016 0.58855087 -0.25590983 0.25907236
0003e0 af 2a 87 3d 6b 98 b6 3d 17 45 77 3f 19 46 3b 3e
       0.06599938 0.0891579 0.965898 0.18288459
0003f0 cf be d0 be b7 bc 8a 3d a4 90 98 bf 90 82 57 3e
       -0.40770575 0.06774276 -1.1919141 0.210459

decoder.2.bias f4 [16]
000000 d2 ab 51 40 83 f8 5f be f8 20 d9 be 22 9a af bf
       3.276112 -0.21872143 -0.42407966 -1.3718913
000010 0d 27 19 3e 10 93 20 40 9c 2d 28 3f 72 8b e2 3e
       0.14956303 2.508976 0.65694594 0.44247013
000020 b9 9d 18 bf d1 60 3f 3e 50 04 8d be 41 03 cd 3f
       -0.59615666 0.18689276 -0.27542353 1.6016618
000030 88 a9 a5 bf dc d4 4c bf 73 25 21 3f 4c 24 74 3f
       -1.2942362 -0.800123 0.6294777 0.95367885

decoder.4.weight f4 [49, 16]
000000 c2 40 d7 bd 2d de 35 3e b1 ec d5 be 64 c3 f0 bd
       -0.105103984 0.17760535 -0.41782144 -0.11756018
000010 27 8e d5 be 6e ac a3 be 01 8f a1 be cb 0b 60 be
       -0.41710016 -0.3196749 -0.31554416 -0.21879499
000020 cb 3d c8 be 4c 24 a5 be 1e 1b 89 be 46 e9 87 3c
       -0.39109644 -0.32254255 -0.267785 0.016590726
000030 4f 47 de be ad be 86 be 36 d8 01 bd 69 f8 89 be
       -0.4341378 -0.2631735 -0.031700335 -0.26947334
000040 f5 1e 3f 3e fa d8 0e bf c4 a3 f3 bf 14 7d ce be
       0.18664153 -0.5579983 -1.9034352 -0.40329802
000050 ef d3 d4 3e 0a d8 b8 3e 90 35 61 bf 37 72 34 3f
       0.41567943 0.36102325 -0.87972355 0.7048678
000060 28 e5 a2 bf 4a b6 43 3e e0 bc bf 3d 08 c7 1c bf
       -1.2726183 0.19112507 0.09362197 -0.612412
000070 f6 a5 9a be 68 68 32 bf ad a1 88 be 4f e9 05 bf
       -0.30204743 -0.6969056 -0.2668585 -0.52309126
000080 ea 6d d0 be 02 6d 05 bf 8b 13 99 be ac 2e 39 bf
       -0.40708858 -0.5211946 -0.29897723 -0.7233684
000090 e0 3c ba 3e b2 0a be bd 02 08 24 3f 51 03 52 3e
       0.3637457 -0.09279384 0.6407472 0.20509078
0000a0 b8 82 9e 3e b9 5f 87 bd 40 4a d7 be fd 46 a1 be
       0.30959105 -0.066100545 -0.42048836 -0.31499472
0000b0 c7 d9 fb bf 28 37 9b bf b0 b1 52 bc 68 dc 63 3f
       -1.9675835 -1.2126207 -0.012859747 0.8900819
0000c0 32 99 44 bd 15 55 3a 3e 78 c2 fc be 5e 59 bd be
       -0.04799766 0.18196519 -0.49367118 -0.36982244
0000d0 99 9d 3f be 62 6e 1b bf 2e cf 95 bd ca ee d5 bf
       -0.18712462 -0.60715306 -0.07314907 -1.6713498
0000e0 54 9a 06 3e 18 f0 be bf b7 16 aa 3e bf 86 c7 bf
       0.13144809 -1.4917021 0.33220455 -1.5587996
0000f0 91 6d 34 3d 75 3a c2 3e 35 96 a2 be 81 a0 49 bf
       0.044049803 0.37935224 -0.31755224 -0.78760535
000100 70 80 8c be 3a 54 c0 3f b8 24 78 3f 13 30 bb 3e
       -0.2744174 1.5025704 0.9693103 0.36560115
000110 36 3d 68 3e 5a 0f 6e 3e df 35 67 3d 4a d4 44 be
       0.226796 0.23248044 0.05644786 -0.19221607
000120 ce 85 10 bf 01 be d6 bb 12 8f 23 c0 41 3f d2 3e
       -0.5645417 -0.006553412 -2.5556073 0.41063884
000130 17 05 f9 bd 74 d6 14 bf e2 6a 71 3d 17 4f bf bc
       -0.12159174 -0.5813973 0.058939822 -0.023353143
000140 cf 4d d1 3e 9b 7f cd bd 83 b5 01 be 80 fb 02 bf
       0.40879676 -0.100341044 -0.12666897 -0.5116501
000150 9f d4 9b bf 9b 75 a4 be db f8 c9 bf ca 9f 88 bd
       -1.2174262 -0.32120976 -1.577907 -0.06671102
000160 18 05 06 c0 1e f5 60 bf 9d 22 95 be 6a 66 c4 3d
       -2.094061 -0.8787402 -0.2912797 0.095898464
000170 45 88 f0 3d 2f ce f3 bd cc cd cb bf 5b 7f b1 bf
       0.11744741 -0.11904561 -1.5922179 -1.3866991
000180 ae aa aa 3b 15 58 a3 ba dd 07 3b bd f9 ac 01 3c
       0.005208335 -0.0012462164 -0.045661796 0.007914775
000190 fb cc e1 3c ab e5 8c 3d bc 12 ba bd d0 94 62 3b
       0.027563563 0.06879743 -0.090856045 0.0034573562
0001a0 59 5f 1f 3d 98 b3 53 bc cb 01 49 bc 6a 2b 34 bc
       0.03890929 -0.012921236 -0.012268494 -0.010996679
0001b0 d5 d4 ba bd 8c e3 d4 3d 2a b4 c3 3c 24 d8 0e bd
       -0.09122626 0.103949636 0.02388962 -0.034874097
0001c0 39 b5 93 bc f1 dc 00 3d 99 bf 9a 3d ed 5c aa bb
       -0.01803075 0.031460706 0.075560756 -0.005199066
0001d0 fc 0a 8d bc 6d 77 d4 3d c5 80 e1 3c 30 fa 0d 3d
       -0.017217152 0.10374341 0.027527222 0.034662426
0001e0 3c f2 4d 3d 98 08 03 bd 10 3e 88 bc 4c c1 0b bc
       0.05027984 -0.031990618 -0.016631156 -0.008529972
0001f0 08 23 00 be f3 1c 49 bc 30 51 d3 3c 20 aa be bd
       -0.12513363 -0.012274968 0.02579555 -0.093097925
000200 b6 ab 86 bc a9 b0 91 3d e1 b1 55 b9 87 ce 54 bf
       -0.0164393 0.071137734 -0.00020379528 -0.83127636
000210 f2 1a d8 bc 8e 9e 2a be ce d7 88 bd ef 6d 47 3e
       -0.026380036 -0.16662046 -0.066817865 0.1947553
000220 c6 f7 b6 3c 88 3b 65 bf b1 f4 ad 3d 83 b6 2c 3d
       0.022334944 -0.8954396 0.08493937 0.042166244
000230 33 ef 93 3c ea 62 96 bd fa 78 3d 3d 08 4b 30 3c
       0.018058395 -0.07343085 0.04625795 0.010760076
000240 c2 06 64 3e aa 07 31 3d e7 48 4c bd bb fe f4 3e
       0.22268203 0.0432202 -0.049874213 0.47850594
000250 0a 2d 6b 3c a9 8d 42 bd 46 02 7b 3f 32 80 cf ba
       0.014354 -0.04749838 0.98050344 -0.0015831052
000260 be 4b e4 3d 42 5f 53 3e 46 f9 21 3e fb 3f c6 be
       0.11147259 0.20641807 0.15817747 -0.38720688
000270 d8 48 ea be ab 59 d4 3d a2 1f ea bd 67 5b b8 bf
       -0.457587 0.10368665 -0.11431815 -1.4402894
000280 cd 85 0e bf a3 70 ca 3f 74 2a 45 bf 71 fd 00 3f
       -0.55672914 1.5815624 -0.77017903 0.5038672
000290 4b 95 19 bf ad b1 00 3f e4 07 7a bf 2a 0a 9c 3e
       -0.5999343 0.5027111 -0.9766829 0.30476505
0002a0 66 76 9a 3e 35 d5 4c 3f 82 48 0a bf b5 f1 ca bf
       0.30168456 0.8001283 -0.5401689 -1.5855013
0002b0 ac 8d 61 bd d2 d6 0c bf 5e 6e 41 3e 6a 54 e2 bc
       -0.05506675 -0.5501529 0.18889758 -0.027628142
0002c0 b2 3c 8d bd 9a 86 05 3f fe 1e 5e bd 71 6d 89 be
       -0.06896342 0.5215851 -0.054228775 -0.2684131
0002d0 e6 cd 28 bc 6d 0c 25 3d 4e bd ef bb 8a 3e e7 be
       -0.010302996 0.040295053 -0.007316268 -0.451649
0002e0 9c f6 02 3e 8e 56 9d bf 2d 51 14 3e 56 5e 55 be
       0.12789387 -1.2292039 0.14484091 -0.20836768
0002f0 fa a6 ef 3b b0 09 df 3d 93 de b9 bc 39 5c 7b 3d
       0.0073136063 0.108905196 -0.02268914 0.061367247
000300 7b 3e 91 3b 2b 74 80 3c 32 77 12 3c f8 25 c8 bf
       0.004432497 0.015680393 0.008939551 -1.5636587
000310 f5 2e 8c 3c 67 f0 e9 3c 19 00 7d 3b e6 a1 c6 bd
       0.017112235 0.028557016 0.0038604795 -0.096988484
000320 3e 1b a9 3c 7f 46 8c bf 46 3a 12 3d d2 3c 33 3c
       0.020642873 -1.0959014 0.035700105 0.010939794
000330 f8 0e 9e bb da a5 40 bd 69 a7 aa bc 7f 44 89 bc
       -0.0048235618 -0.04703317 -0.02083178 -0.016756294
000340 bd b0 ad be 79 c2 1b 3e 6f 0b f5 bd 45 df 4c be
       -0.33923903 0.15210904 -0.119650714 -0.20007046
000350 60 21 06 be 22 70 99 be ac 9b 8b 3d e6 5a ac be
       -0.13098669 -0.29968363 0.068168014 -0.336631
000360 0b 02 33 be e2 8d 8e bd f2 00 d7 be 8a a8 5d be
       -0.17481248 -0.06960656 -0.4199291 -0.21646324
000370 24 a1 ce be 7c 5e 9c be cc 28 88 3d ec 2a ae be
       -0.40357316 -0.30540836 0.066484064 -0.34017122
000380 33 ef a9 3d 42 93 52 3f cb cf 14 c0 93 1a 2d bd
       0.08297577 0.8225595 -2.3251827 -0.04226167
000390 5f d7 8a 3d 3d 94 23 3e 4b 6f b8 3e bb f1 fc bd
       0.0677936 0.15974517 0.3602241 -0.12350794
0003a0 85 0c 26 be 7c 09 eb 3e 65 62 77 bf 2c 65 39 3f
       -0.16215713 0.45905674 -0.96634513 0.7242
0003b0 db f3 ef be e6 6c e5 be 53 d1 8a 3e b9 74 72 bd
       -0.46865734 -0.44809645 0.27112827 -0.059193347
0003c0 12 1b 8e bd c7 61 b5 3d 8a 85 b8 3d a5 d8 9b 3e
       -0.06938757 0.0885654 0.090098456 0.30438724
0003d0 d2 1a ac be 79 9f ad be dd 43 8f bd 67 fe 23 bf
       -0.33614212 -0.3391073 -0.06995366 -0.6406006
0003e0 b5 a7 7b 3d e2 5c 7d bf 9a 6f a4 be 70 ce 98 3d
       0.061439235 -0.9896985 -0.32116395 0.0746125
0003f0 d0 fb 96 bd 8e 7f 95 3e 83 d0 c6 be 29 95 38 3e
       -0.07372248 0.2919888 -0.38830957 0.1802565

decoder.4.bias f4 [49]
000000 f3 19 89 be 0e 11 74 3f 18 b9 a4 3f f7 0e c0 be
       -0.2677761 0.95338523 1.2868986 -0.37511417
000010 92 96 46 3e e5 8e aa 3e 2c eb ea bf ba a6 45 bf
       0.19393376 0.33312145 -1.8353019 -0.7720753
000020 2f 82 92 3f 4e a7 04 3f 53 59 e0 bd 4a 03 f6 bf
       1.1445979 0.51817787 -0.10954537 -1.9219754
000030 f4 53 7c 3f ce b7 df bd f6 6c 47 40 80 42 8d 3f
       0.985656 -0.1092373 3.1160254 1.1035919
000040 ed 1e 87 bd 29 72 96 bf 3e ce 40 bf 37 99 dd bf
       -0.065976955 -1.1753589 -0.753147 -1.7312382
000050 8c 5c 60 be 98 00 0e be 10 02 51 be 78 27 db bd
       -0.21910304 -0.13867414 -0.20410943 -0.107008874
000060 f9 d8 08 bd 79 d3 82 be 10 76 25 3e a2 7c ae 3d
       -0.033410046 -0.25551966 0.16158319 0.085198656
000070 84 30 8a bf cf d6 e5 be b5 9f 16 40 88 f4 25 be
       -1.0796056 -0.44890448 2.3534977 -0.16206563
000080 16 79 6a 3e 90 ea 26 c0 8b e8 65 3f ed f7 87 be
       0.22897753 -2.6080666 0.8980796 -0.2655634
000090 2b 55 f5 bd 4d 14 45 bf bb 44 df bf c3 bb 45 bf
       -0.11979135 -0.769841 -1.744285 -0.77239627
0000a0 06 ac ba bf 29 7d 0a bf e4 a2 1f c0 73 30 c3 3d
       -1.4583747 -0.5409723 -2.494317 0.09530725
0000b0 88 8b e7 3d e5 1f d0 bd 08 5d ba 3d e9 25 99 c0
       0.1130591 -0.101623334 0.090997756 -4.7858777
0000c0 28 f7 4d be
       -0.20113814
